…
    "text": "Evaluating a VAE’s Reconstruction Quality\nLet’s load a pre-trained VAE and evaluate its reconstruction quality on the animal faces dataset.\n\nLoad the Stable Diffusion (SD) VAE\n\nimport torch\nfrom diffusers import AutoencoderKL\n\n# Load Stable Diffusion (SD) VAE\nvae = AutoencoderKL.from_pretrained(\"stabilityai/sd-vae-ft-mse\")\nvae.eval()  # Set to evaluation mode\n\n# Print model structure and size\nprint(\"VAE Model Structure:\")\nprint(vae)\n\n# Calculate and print total number of parameters\ntotal_params = sum(p.numel() for p in vae.parameters())\nprint(f\"Model size (number of parameters): {total_params / 1e6:.2f}M\")\n\nVAE Model Structure:\nAutoencoderKL(\n  (encoder): Encoder(\n    (conv_in): Conv2d(3, 128, kernel_size=(3, 3), stride=(1, 1), padding=(1, 1))\n    (down_blocks): ModuleList(\n      (0): DownEncoderBlock2D(\n        (resnets): ModuleList(\n          (0-1): 2 x ResnetBlock2D(\n            (norm1): GroupNorm(32, 128, eps=1e-06, affine=True)\n            (conv1): Conv2d(128, 128, kernel_size=(3, 3), stride=(1, 1), padding=(1, 1))\n            (norm2): GroupNorm(32, 128, eps=1e-06, affine=True)\n            (dropout): Dropout(p=0.0, inplace=False)\n            (conv2): Conv2d(128, 128, kernel_size=(3, 3), stride=(1, 1), padding=(1, 1))\n            (nonlinearity): SiLU()\n          )\n        )\n        (downsamplers): ModuleList(\n          (0): Downsample2D(\n            (conv): Conv2d(128, 128, kernel_size=(3, 3), stride=(2, 2))\n          )\n        )\n      )\n      (1): DownEncoderBlock2D(\n        (resnets): ModuleList(\n          (0): ResnetBlock2D(\n            (norm1): GroupNorm(32, 128, eps=1e-06, affine=True)\n            (conv1): Conv2d(128, 256, kernel_size=(3, 3), stride=(1, 1), padding=(1, 1))\n            (norm2): GroupNorm(32, 256, eps=1e-06, affine=True)\n            (dropout): Dropout(p=0.0, inplace=False)\n            (conv2): Conv2d(256, 256, kernel_size=(3, 3), stride=(1, 1), padding=(1, 1))\n            (nonlinearity): SiLU()\n            (conv_shortcut): Conv2d(128, 256, kernel_size=(1, 1), stride=(1, 1))\n          )\n          (1): ResnetBlock2D(\n            (norm1): GroupNorm(32, 256, eps=1e-06, affine=True)\n            (conv1): Conv2d(256, 256, kernel_size=(3, 3), stride=(1, 1), padding=(1, 1))\n            (norm2): GroupNorm(32, 256, eps=1e-06, affine=True)\n            (dropout): Dropout(p=0.0, inplace=False)\n            (conv2): Conv2d(256, 256, kernel_size=(3, 3), stride=(1, 1), padding=(1, 1))\n            (nonlinearity): SiLU()\n          )\n        )\n        (downsamplers): ModuleList(\n          (0): Downsample2D(\n            (conv): Conv2d(256, 256, kernel_size=(3, 3), stride=(2, 2))\n          )\n        )\n      )\n      (2): DownEncoderBlock2D(\n        (resnets): ModuleList(\n          (0): ResnetBlock2D(\n            (norm1): GroupNorm(32, 256, eps=1e-06, affine=True)\n            (conv1): Conv2d(256, 512, kernel_size=(3, 3), stride=(1, 1), padding=(1, 1))\n            (norm2): GroupNorm(32, 512, eps=1e-06, affine=True)\n            (dropout): Dropout(p=0.0, inplace=False)\n            (conv2): Conv2d(512, 512, kernel_size=(3, 3), stride=(1, 1), padding=(1, 1))\n            (nonlinearity): SiLU()\n            (conv_shortcut): Conv2d(256, 512, kernel_size=(1, 1), stride=(1, 1))\n          )\n          (1): ResnetBlock2D(\n            (norm1): GroupNorm(32, 512, eps=1e-06, affine=True)\n            (conv1): Conv2d(512, 512, kernel_size=(3, 3), stride=(1, 1), padding=(1, 1))\n            (norm2): GroupNorm(32, 512, eps=1e-06, affine=True)\n            (dropout): Dropout(p=0.0, inplace=False)\n            (conv2): Conv2d(512, 512, kernel_size=(3, 3), stride=(1, 1), padding=(1, 1))\n            (nonlinearity): SiLU()\n          )\n        )\n        (downsamplers): ModuleList(\n          (0): Downsample2D(\n            (conv): Conv2d(512, 512, kernel_size=(3, 3), stride=(2, 2))\n          )\n        )\n      )\n      (3): DownEncoderBlock2D(\n        (resnets): ModuleList(\n          (0-1): 2 x ResnetBlock2D(\n            (norm1): GroupNorm(32, 512, eps=1e-06, affine=True)\n            (conv1): Conv2d(512, 512, kernel_size=(3, 3), stride=(1, 1), padding=(1, 1))\n            (norm2): GroupNorm(32, 512, eps=1e-06, affine=True)\n            (dropout): Dropout(p=0.0, inplace=False)\n            (conv2): Conv2d(512, 512, kernel_size=(3, 3), stride=(1, 1), padding=(1, 1))\n            (nonlinearity): SiLU()\n          )\n        )\n      )\n    )\n    (mid_block): UNetMidBlock2D(\n      (attentions): ModuleList(\n        (0): Attention(\n          (group_norm): GroupNorm(32, 512, eps=1e-06, affine=True)\n          (to_q): Linear(in_features=512, out_features=512, bias=True)\n          (to_k): Linear(in_features=512, out_features=512, bias=True)\n          (to_v): Linear(in_features=512, out_features=512, bias=True)\n          (to_out): ModuleList(\n            (0): Linear(in_features=512, out_features=512, bias=True)\n            (1): Dropout(p=0.0, inplace=False)\n          )\n        )\n      )\n      (resnets): ModuleList(\n        (0-1): 2 x ResnetBlock2D(\n          (norm1): GroupNorm(32, 512, eps=1e-06, affine=True)\n          (conv1): Conv2d(512, 512, kernel_size=(3, 3), stride=(1, 1), padding=(1, 1))\n          (norm2): GroupNorm(32, 512, eps=1e-06, affine=True)\n          (dropout): Dropout(p=0.0, inplace=False)\n          (conv2): Conv2d(512, 512, kernel_size=(3, 3), stride=(1, 1), padding=(1, 1))\n          (nonlinearity): SiLU()\n        )\n      )\n    )\n    (conv_norm_out): GroupNorm(32, 512, eps=1e-06, affine=True)\n    (conv_act): SiLU()\n    (conv_out): Conv2d(512, 8, kernel_size=(3, 3), stride=(1, 1), padding=(1, 1))\n  )\n  (decoder): Decoder(\n    (conv_in): Conv2d(4, 512, kernel_size=(3, 3), stride=(1, 1), padding=(1, 1))\n    (up_blocks): ModuleList(\n      (0-1): 2 x UpDecoderBlock2D(\n        (resnets): ModuleList(\n          (0-2): 3 x ResnetBlock2D(\n            (norm1): GroupNorm(32, 512, eps=1e-06, affine=True)\n            (conv1): Conv2d(512, 512, kernel_size=(3, 3), stride=(1, 1), padding=(1, 1))\n            (norm2): GroupNorm(32, 512, eps=1e-06, affine=True)\n            (dropout): Dropout(p=0.0, inplace=False)\n            (conv2): Conv2d(512, 512, kernel_size=(3, 3), stride=(1, 1), padding=(1, 1))\n            (nonlinearity): SiLU()\n          )\n        )\n        (upsamplers): ModuleList(\n          (0): Upsample2D(\n            (conv): Conv2d(512, 512, kernel_size=(3, 3), stride=(1, 1), padding=(1, 1))\n          )\n        )\n      )\n      (2): UpDecoderBlock2D(\n        (resnets): ModuleList(\n          (0): ResnetBlock2D(\n            (norm1): GroupNorm(32, 512, eps=1e-06, affine=True)\n            (conv1): Conv2d(512, 256, kernel_size=(3, 3), stride=(1, 1), padding=(1, 1))\n            (norm2): GroupNorm(32, 256, eps=1e-06, affine=True)\n            (dropout): Dropout(p=0.0, inplace=False)\n            (conv2): Conv2d(256, 256, kernel_size=(3, 3), stride=(1, 1), padding=(1, 1))\n            (nonlinearity): SiLU()\n            (conv_shortcut): Conv2d(512, 256, kernel_size=(1, 1), stride=(1, 1))\n          )\n          (1-2): 2 x ResnetBlock2D(\n            (norm1): GroupNorm(32, 256, eps=1e-06, affine=True)\n            (conv1): Conv2d(256, 256, kernel_size=(3, 3), stride=(1, 1), padding=(1, 1))\n            (norm2): GroupNorm(32, 256, eps=1e-06, affine=True)\n            (dropout): Dropout(p=0.0, inplace=False)\n            (conv2): Conv2d(256, 256, kernel_size=(3, 3), stride=(1, 1), padding=(1, 1))\n            (nonlinearity): SiLU()\n          )\n        )\n        (upsamplers): ModuleList(\n          (0): Upsample2D(\n            (conv): Conv2d(256, 256, kernel_size=(3, 3), stride=(1, 1), padding=(1, 1))\n          )\n        )\n      )\n      (3): UpDecoderBlock2D(\n        (resnets): ModuleList(\n          (0): ResnetBlock2D(\n            (norm1): GroupNorm(32, 256, eps=1e-06, affine=True)\n            (conv1): Conv2d(256, 128, kernel_size=(3, 3), stride=(1, 1), padding=(1, 1))\n            (norm2): GroupNorm(32, 128, eps=1e-06, affine=True)\n            (dropout): Dropout(p=0.0, inplace=False)\n            (conv2): Conv2d(128, 128, kernel_size=(3, 3), stride=(1, 1), padding=(1, 1))\n            (nonlinearity): SiLU()\n            (conv_shortcut): Conv2d(256, 128, kernel_size=(1, 1), stride=(1, 1))\n          )\n          (1-2): 2 x ResnetBlock2D(\n            (norm1): GroupNorm(32, 128, eps=1e-06, affine=True)\n            (conv1): Conv2d(128, 128, kernel_size=(3, 3), stride=(1, 1), padding=(1, 1))\n            (norm2): GroupNorm(32, 128, eps=1e-06, affine=True)\n            (dropout): Dropout(p=0.0, inplace=False)\n            (conv2): Conv2d(128, 128, kernel_size=(3, 3), stride=(1, 1), padding=(1, 1))\n            (nonlinearity): SiLU()\n          )\n        )\n      )\n    )\n    (mid_block): UNetMidBlock2D(\n      (attentions): ModuleList(\n        (0): Attention(\n          (group_norm): GroupNorm(32, 512, eps=1e-06, affine=True)\n          (to_q): Linear(in_features=512, out_features=512, bias=True)\n          (to_k): Linear(in_features=512, out_features=512, bias=True)\n          (to_v): Linear(in_features=512, out_features=512, bias=True)\n          (to_out): ModuleList(\n            (0): Linear(in_features=512, out_features=512, bias=True)\n            (1): Dropout(p=0.0, inplace=False)\n          )\n        )\n      )\n      (resnets): ModuleList(\n        (0-1): 2 x ResnetBlock2D(\n          (norm1): GroupNorm(32, 512, eps=1e-06, affine=True)\n          (conv1): Conv2d(512, 512, kernel_size=(3, 3), stride=(1, 1), padding=(1, 1))\n          (norm2): GroupNorm(32, 512, eps=1e-06, affine=True)\n          (dropout): Dropout(p=0.0, inplace=False)\n          (conv2): Conv2d(512, 512, kernel_size=(3, 3), stride=(1, 1), padding=(1, 1))\n          (nonlinearity): SiLU()\n        )\n      )\n    )\n    (conv_norm_out): GroupNorm(32, 128, eps=1e-06, affine=True)\n    (conv_act): SiLU()\n    (conv_out): Conv2d(128, 3, kernel_size=(3, 3), stride=(1, 1), padding=(1, 1))\n  )\n  (quant_conv): Conv2d(8, 8, kernel_size=(1, 1), stride=(1, 1))\n  (post_quant_conv): Conv2d(4, 4, kernel_size=(1, 1), stride=(1, 1))\n)\nModel size (number of parameters): 83.65M\n\n\n\n\nAnimal faces dataset\n\n# Load the animal faces dataset\nfrom datasets import load_dataset\nfrom matplotlib import pyplot as plt\nimport numpy as np\n\ndataset = load_dataset(\"zzsi/afhq64_16k\", split=\"train\")\n\n# visualize the first example\nimg = dataset[0][\"image\"]\nimg = np.array(img).astype(n
…
o longer be allowed to be loaded via this mode unless they are explicitly allowlisted by the user via `torch.serialization.add_safe_globals`. We recommend you start setting `weights_only=True` for any use case where you don't have full control of the loaded file. Please open an issue on GitHub for any issues related to this experimental feature.\n  denoising_model.load_state_dict(torch.load(\"denoising_model_4_2.pth\", map_location=\"cuda:0\"))\n\n\nTextEncoder(\n  (model): CLIPTextModel(\n    (text_model): CLIPTextTransformer(\n      (embeddings): CLIPTextEmbeddings(\n        (token_embedding): Embedding(49408, 768)\n        (position_embedding): Embedding(77, 768)\n      )\n      (encoder): CLIPEncoder(\n        (layers): ModuleList(\n          (0-11): 12 x CLIPEncoderLayer(\n            (self_attn): CLIPSdpaAttention(\n              (k_proj): Linear(in_features=768, out_features=768, bias=True)\n              (v_proj): Linear(in_features=768, out_features=768, bias=True)\n              (q_proj): Linear(in_features=768, out_features=768, bias=True)\n              (out_proj): Linear(in_features=768, out_features=768, bias=True)\n            )\n            (layer_norm1): LayerNorm((768,), eps=1e-05, elementwise_affine=True)\n            (mlp): CLIPMLP(\n              (activation_fn): QuickGELUActivation()\n              (fc1): Linear(in_features=768, out_features=3072, bias=True)\n              (fc2): Linear(in_features=3072, out_features=768, bias=True)\n            )\n            (layer_norm2): LayerNorm((768,), eps=1e-05, elementwise_affine=True)\n          )\n        )\n      )\n      (final_layer_norm): LayerNorm((768,), eps=1e-05, elementwise_affine=True)\n    )\n  )\n)",
    "crumbs": [
      "Home",
      "Text Conditioning",
      "Generate images with text prompts using flow matching"
    ]
  },
  {
    "objectID": "4_2a_generate_t2i_cfm.html#text-prompts",
    "href": "4_2a_generate_t2i_cfm.html#text-prompts",
    "title": "Generate images with text prompts using flow matching",
    "section": "Text prompts",
…
